Epochs = 100
early_stop = si
Test loss: 1.5774601743926608
Test accuracy: 0.7347403764724731


Layer (type)                 Output Shape              Param #   
=================================================================
conv2d_1 (Conv2D)            (None, 26, 26, 64)        640       
_________________________________________________________________
conv2d_2 (Conv2D)            (None, 24, 24, 128)       73856     
_________________________________________________________________
max_pooling2d_1 (MaxPooling2 (None, 12, 12, 128)       0         
_________________________________________________________________
dropout_1 (Dropout)          (None, 12, 12, 128)       0         
_________________________________________________________________
flatten_1 (Flatten)          (None, 18432)             0         
_________________________________________________________________
dense_1 (Dense)              (None, 128)               2359424   
_________________________________________________________________
dropout_2 (Dropout)          (None, 128)               0         
_________________________________________________________________
dense_2 (Dense)              (None, 85)                10965     
=================================================================
Total params: 2,444,885
Trainable params: 2,444,885
Non-trainable params: 0
_________________________________________________________________
None
Train on 573464 samples, validate on 134702 samples

